converted_model1.tflite (tflite, 742444 bytes, 16 tensors)

arith.constant f4 [32, 3, 3, 3]
-3.30302e-05 -0.00042162408 -0.0003280136 0.00043123617 0.0001300302 -0.0004314826 -0.00033498538 0.000639675
-0.00012419105 -0.00021299279 0.00024395717 -0.00031213692 0.00038334262 0.00010995049 -0.00070414896 -0.00046042787
-3.0652325e-05 -0.00021132437 0.00029753585 0.00060803967 -0.00037642327 -4.8384347e-05 0.0006295979 -7.879935e-05
5.8005724e-05 0.00030510128 -0.00022565854 -0.00048422482 -0.00057671044 -9.057623e-05 -0.00050479366 0.00032176793
-0.00023579421 2.8704702e-05 -0.0003000274 -0.000443622 0.0002005058 3.5303743e-05 0.00019128165 -0.0002532901
-0.00044936503 -0.0001444617 -0.00020346927 -1.8905885e-05 -0.00018588259 -0.00016779036 -0.0005319489 0.0002827226
0.00010124237 0.00044389008 -0.0005058096 7.052004e-05 -5.7195026e-05 0.00030759472 -0.0002966114 -0.000582966
-0.0006605047 -0.00017466515 0.00012053518 -0.00045025966 0.0007274738 0.00036985675 0.00041839894 -0.0001515612
-0.0003018047 -0.00018187743 -0.00036458217 1.0740756e-05 0.000491018 0.0008681687 5.2973835e-05 0.00072292995
-0.00054481294 -0.0002635387 -0.00075394375 -0.00013825533 -9.0141715e-05 0.00021177095 6.600081e-05 0.00016273097
0.0005869763 0.0003839047 -0.0005183606 -1.2937211e-05 -0.00046057903 0.0002665992 -0.00052912475 0.00018969369
-0.00020276099 0.00019812191 3.310062e-05 -0.00046667422 0.0003465569 -0.00043090334 0.00018461392 -0.0005743954
0.0003795775 0.00026148206 0.0002588237 -0.00030620486 -0.00026881613 4.3497286e-05 0.00021214588 0.00026926602
-8.4047504e-05 -0.00037275936 -0.00045499278 -0.0003413846 3.870248e-05 0.00023032248 0.0006357575 -7.7976656e-05
3.9297415e-06 2.5613574e-05 -0.0007226055 -0.0006146431 0.00035290406 0.00041145305 0.00055729266 0.0001464464
-0.00022152856 -0.0005165781 -0.0004199284 -0.00044349782 -0.00053665205 0.0002444152 -0.0003217033 6.4335276e-05
0.00014859984 0.00026191867 0.0001952984 0.00049723755 -0.00029553357 -0.0006620781 -0.00011564671 -0.00026345765
0.00022306609 0.00015293223 -0.00048490104 0.0001854936 0.00034987082 0.00010210208 -0.00036242243 -0.00039918142
0.0003940955 -0.000654114 0.00036828587 -0.00046579065 0.00012599613 0.00016849877 0.0003183462 -0.00014724414
6.5012595e-05 -0.00013161432 3.781922e-05 0.000120802775 -0.00032864994 0.00017966605 -0.00030391314 0.00026658352
-0.00058525085 -0.000493444 0.00061923685 0.00037558345 0.0004852426 -0.00020885332 -0.00012330076 0.00020101514
0.00024169139 0.0005285738 -0.00038646307 0.00013708566 -6.088807e-05 0.00077304733 -0.00026485557 -4.367733e-05
-0.00011970873 -0.00040707295 -0.0001445341 -0.00046912555 -8.596166e-06 -0.00040119136 -0.0003541211 0.0003185106
-0.00014713153 -0.000113879076 -0.00022094669 -0.0005223349 -0.00027178228 0.00016231122 -7.84574e-05 0.0005118826
-0.00037930495 0.00014018256 0.00060582894 -0.00061468675 -0.00033355987 0.00035573717 -0.00018501404 0.00040243063
0.0003956861 -5.734396e-05 0.00049229903 -0.00010020639 -0.00065118464 0.00030050683 0.00042375602 0.00011195663
8.912881e-06 3.4073888e-05 -0.0007235916 0.00015078383 0.00048175172 -0.0001306576 -0.00038333106 -0.00019720048
-9.004589e-05 -0.0004856128 4.018247e-05 -0.000116574876 -0.00065889687 -0.00044450894 -0.0003235932 0.00025127875
-0.00024069104 -0.00010522893 -0.00041806692 -0.00036900231 -5.3168038e-05 0.0002564154 -0.0002591789 0.00031105994
-3.01431e-05 0.0005161598 -0.0006996446 -0.00018431565 0.00023272501 2.7968708e-05 0.00029703265 0.0003948135
0.000295164 0.00014198261 -7.4971525e-05 0.000390267 3.8866645e-05 2.2931887e-05 -0.00043388558 0.00024225876
0.000111704314 0.000120981735 -0.00035934386 0.00052972033 -0.00030744073 -0.00036449125 0.000675449 -0.00027253394
00000000: e889 0ab8 6d0d ddb9 3df9 abb9 8a17 e239
00000010: b758 0839 9d38 e2b9 faa0 afb9 ddaf 273a
00000020: 4839 02b9 d156 5fb9 c1ce 7f39 4fa6 a3b9
00000030: 60fb c839 3895 e638 a396 38ba 9565 f1b9
00000040: af90 00b8 f496 5db9 96fe 9b39 da64 1f3a
00000050: ad5a c5b9 4cf0 4ab8 9a0b 253a 1441 a5b8
00000060: 2c4b 7338 00f6 9f39 c19e 6cb9 8edf fdb9
00000070: 622e 17ba bef3 bdb8 2154 04ba f6b2 a839
00000080: 873f 77b9 e1ca f037 ff4c 9db9 f095 e8b9
00000090: de3e 5239 1b13 1438 c792 4839 06cc 84b9
000000a0: c198 ebb9 a47a 17b9 5e5a 55b9 1498 9eb7
000000b0: 7ae9 42b9 e2f0 2fb9 7d72 0bba 633a 9439
000000c0: 1552 d438 ebb9 e839 4f98 04ba 28e4 9338
000000d0: b1e4 6fb8 aa44 a139 8282 9bb9 30d2 18ba
000000e0: b825 2dba 5226 37b9 d5c7 fc38 d410 ecb9
000000f0: f1b3 3e3a 55e9 c139 8e5c db39 66ec 1eb9
00000100: 8b3b 9eb9 5ab6 3eb9 6425 bfb9 3233 3437
00000110: a9b7 003a d195 633a 3930 5e38 0283 3d3a
00000120: c7d1 0eba 912b 8ab9 4fa4 45ba a2f8 10b9
00000130: 770a bdb8 d50e 5e39 ea69 8a38 c3a2 2a39
00000140: 50df 193a d146 c939 97e2 07ba e60c 59b7
00000150: df79 f1b9 57c6 8b39 f6b4 0aba 83e8 4639
00000160: 3d9c 54b9 f2be 4f39 85d5 0a38 f4ab f4b9
00000170: 14b2 b539 deea e1b9 ec94 4139 0693 16ba
00000180: 0802 c739 8717 8939 bbb2 8739 1f8a a0b9
00000190: e4ef 8cb9 db70 3638 7a73 5e39 462c 8d39
000001a0: a942 b0b8 ea6e c3b9 198c eeb9 defb b2b9
000001b0: 7954 2238 b882 7139 f7a8 263a 6687 a3b8
000001c0: 39dc 8336 bbdc d637 3c6d 3dba 0020 21ba
000001d0: fb05 b939 4bb8 d739 4717 123a 688f 1939
000001e0: 1f4a 68b9 f86a 07ba d629 dcb9 4585 e8b9
000001f0: 1cae 0cba da24 8039 49aa a8b9 bdeb 8638
00000200: 77d1 1b39 2152 8939 04c9 4c39 0c59 023a
00000210: d8f1 9ab9 4f8f 2dba 5b87 f2b8 b020 8ab9
00000220: d9e6 6939 6f5c 2039 513a feb9 0f81 4239
00000230: de6e b739 a31f d638 8403 beb9 3949 d1b9
00000240: 9a9e ce39 d978 2bba 7e16 c139 5d35 f4b9
00000250: d41d 0439 0baf 3039 b4e7 a639 8c65 1ab9
00000260: 5f57 8838 f301 0ab9 14a0 1e38 7f57 fd38
00000270: a64e acb9 bd64 3c39 8856 9fb9 3cc4 8b39
00000280: 856b 19ba 775a 01ba 4854 223a f5e9 c439
00000290: 2968 fe39 a3ff 5ab9 4c4a 01b9 97c7 5239
000002a0: 8a6e 7d39 fd8f 0a3a 329e cab9 a7be 0f39
000002b0: 1162 7fb8 54a6 4a3a 50dc 8ab9 2d32 37b8
000002c0: 230c fbb8 686c d5b9 148e 17b9 f7f4 f5b9
000002d0: 4038 10b7 fe56 d2b9 54a9 b9b9 c5fd a639
000002e0: 5247 1ab9 5dd2 eeb8 edad 67b9 4ded 08ba
000002f0: 007e 8eb9 1632 2a39 7f89 a4b8 dc2f 063a
00000300: 73dd c6b9 f8fd 1239 7ed0 1e3a ee22 21ba
00000310: a6e1 aeb9 3c82 ba39 5400 42b9 53fd d239
00000320: 1774 cf39 9c84 70b8 a10d 013a e525 d2b8
00000330: 43b4 2aba 588d 9d39 922b de39 42ca ea38
00000340: 8888 1537 8fea 0e38 69af 3dba ba1b 1e39
00000350: 9f93 fc39 2201 09b9 d3f9 c8b9 9ac7 4eb9
00000360: 05d7 bcb8 d999 feb9 9989 2838 a979 f4b8
00000370: d2b9 2cba fb0c e9b9 f2a7 a9b9 10be 8339
00000380: 0262 7cb9 5aae dcb8 fe2f dbb9 a776 c1b9
00000390: bf00 5fb8 7e6f 8639 67e2 87b9 c215 a339
000003a0: d0db fcb7 e64e 073a 5b68 37ba db44 41b9
000003b0: a507 7439 589e ea37 0cbb 9b39 f9fe ce39
000003c0: 3ec0 9a39 2be1 1439 083a 9db8 c09c cc39
000003d0: be04 2338 da5d c037 237b e3b9 d706 7e39
000003e0: cc42 ea38 93b7 fd38 5166 bcb9 eedc 0a3a
000003f0: ff2f a1b9 3019 bfb9 9d10 313a e3e2 8eb9

arith.constant1 f4 [64]
0.074267365 -0.012880137 -0.069541335 -0.04290991 -0.04682389 0.25557026 -0.014071619 0.06356242
-0.07074951 0.03631943 -0.03355682 -0.0076934225 -0.047572304 0.03580731 0.055238437 -0.016131954
0.02822648 -0.042482987 -0.04455696 -0.0123259425 -0.09526741 0.073762216 -0.0099327825 -0.042529933
-0.044943407 -0.060186535 -0.033704307 -0.054544557 -0.035737522 0.1397932 0.28185052 0.21586122
0.032566153 -0.03495045 0.21852617 -0.016199524 0.06104152 0.04942267 0.05453572 0.25361368
0.10291542 -0.03496439 0.11333053 -0.07173994 -0.016736167 -0.034210883 -0.050572228 0.10178581
0.06510953 -0.1403398 -0.02578558 -0.019945968 -0.025300048 -0.02478103 -0.019330205 0.05055874
0.12655626 0.07476431 0.17613302 -0.021684336 0.0041985866 0.14057519 -0.019321883 -0.048108485
00000000: 7d19 983d 3607 53bc b06b 8ebd 4dc2 2fbd
00000010: 68ca 3fbd 1bda 823e a68c 66bc 042d 823d
00000020: 1ee5 90bd afc3 143d e072 09bd 1b19 fcbb
00000030: 2ddb 42bd b0aa 123d b341 623d 2927 84bc
00000040: 383b e73c a402 2ebd 5c81 36bd c0f2 49bc
00000050: 8f1b c3bd a510 973d 1cbd 22bc de33 2ebd
00000060: 9416 38bd 2886 76bd 870d 0abd 1d6a 5fbd
00000070: 8261 12bd f325 0f3e b64e 903e b90a 5d3e
00000080: 1664 053d 3428 0fbd 53c5 5f3e ddb4 84bc
00000090: ac06 7a3d 6d6f 4a3d d960 5f3d a7d9 813e
000000a0: 52c5 d23d d236 0fbd d619 e83d 64ec 92bd
000000b0: 491a 89bc b620 0cbd d324 4fbd 1475 d03d
000000c0: 2558 853d 3db5 0fbe 483c d3bc ba65 a3bc
000000d0: 0c42 cfbc 9601 cbbc 615a 9ebc ae16 4f3d
000000e0: f797 013e 081e 993d 375c 343e 59a3 b1bc
000000f0: 4c94 893b f1f2 0f3e ed48 9ebc 670d 45bd

arith.constant2 f4 [64]
0.32255554 -0.0819216 -0.087224185 -0.15536125 -0.050605584 0.037352778 0.033695303 0.04204742
-0.055670083 0.0918193 -0.050318945 0.0846955 -0.03612423 0.049884774 0.14279981 0.10305388
-0.09892849 -0.035942998 0.06495745 -0.08170733 0.17305422 -0.049728643 0.078920215 0.046829656
-0.14059733 -0.16170761 -0.048618507 0.2203468 0.049117528 -0.03920967 0.1648577 -0.10372071
0.012504188 -0.055120945 -0.07207222 -0.0023893237 -0.01007995 -0.036049068 0.15221675 -0.078240156
0.2090641 0.030773278 0.013281779 -0.031745456 0.2010723 0.057728477 0.020227948 -0.04955945
0.07077036 -0.15500438 0.10756128 -0.021236528 0.045366634 0.0329774 -0.13753071 -0.015781129
-0.015438122 -0.04194884 0.03477057 -0.086251274 0.09642197 -0.072192304 0.05093004 -0.007438983
00000000: 0026 a53e 83c6 a7bd 98a2 b2bd 0517 1fbe
00000010: cd47 4fbd 3aff 183d 1604 0a3d ea39 2c3d
00000020: 5006 64bd c20b bc3d 3d1b 4ebd d674 ad3d
00000030: 00f7 13bd fa53 4c3d 1d3a 123e ea0d d33d
00000040: 059b cabd f738 13bd 6908 853d 2c56 a7bd
00000050: 2035 313e 43b0 4bbd eca0 a13d 74d0 3f3d
00000060: bff8 0fbe ae96 25be 3324 47bd 97a2 613e
00000070: 762f 493d 529a 20bd 75d0 283e 866b d4bd
00000080: 5ede 4c3c 80c6 61bd 9a9a 93bd 3396 1cbb
00000090: 6026 25bc 30a8 13bd b5de 1b3e 603c a0bd
000000a0: e614 563e 3e18 fc3c d29b 593c 8607 02bd
000000b0: e6e5 4d3e b274 6c3d 15b5 a53c dafe 4abd
000000c0: 0df0 903d 78b9 1ebe 1749 dc3d 3af8 adbc
000000d0: 5dd2 393d 4f13 073d dad4 0cbe 6d47 81bc
000000e0: 2df0 7cbc 8cd2 2bbd 966b 0e3d 82a4 b0bd
000000f0: e278 c53d 8fd9 93bd 059c 503d b6c2 f3bb

arith.constant3 f4 [64]
-0.0070602912 -0.08666452 0.037919633 -0.022498313 0.056081615 0.068893865 0.016730072 0.09282092
-0.085043974 -0.037575874 -0.037868883 -0.049308512 -0.14554618 -0.027330324 0.10196706 0.0045283204
-0.042733837 0.06987827 -0.025642855 -0.04710154 -0.042726826 -0.03801317 0.03363454 -0.0062407535
0.047959223 -0.03121574 -0.021015203 0.07237786 -0.012592478 -0.030472932 -0.018788932 -0.07658929
0.13738883 -0.0057876534 -0.09404412 0.07994662 -0.031864356 -0.013118877 -0.030419022 -0.09823867
-0.049419753 0.038687743 -0.020291634 0.10402799 0.08766167 -0.034131978 0.0010258991 0.02082203
-0.09485334 -0.020197991 0.07163453 -0.0060616904 -0.040997427 -0.034952145 0.015228693 0.12741353
-0.05526356 0.029184131 0.11152698 0.15685362 -0.06353446 -0.055698417 0.09823913 -0.029059036
00000000: 045a e7bb 2b7d b1bd 9e51 1b3d 624e b8bc
00000010: d6b5 653d 3a18 8d3d 810d 893c e518 be3d
00000020: 892b aebd 29e9 19bd 671c 1bbd b9f7 49bd
00000030: 0f0a 15be d8e3 dfbc 1bd4 d03d 4e62 943b
00000040: ad09 2fbd 571c 8f3d f710 d2bc 8bed 40bd
00000050: 5302 2fbd b3b3 1bbd 5fc4 093d 3c7f ccbb
00000060: e470 443d 27b8 ffbc 1328 acbc d83a 943d
00000070: ae50 4ebc 5fa2 f9bc 3feb 99bc d8da 9cbd
00000080: a8af 0c3e 5ba6 bdbb 349a c0bd 0ebb a33d
00000090: 3384 02bd 8ff0 56bc 5031 f9bc 5b31 c9bd
000000a0: 5e6c 4abd 0a77 1e3d a43a a6bc a00c d53d
000000b0: f687 b33d f9cd 0bbd 7677 863a f692 aa3c
000000c0: 7842 c2bd 4276 a5bc 20b5 923d 25a1 c6bb
000000d0: ebec 27bd fb29 0fbd c581 793c b178 023e
000000e0: 0b5c 62bd 8f13 ef3c 4268 e43d 3c9e 203e
000000f0: 5b1e 82bd 0624 64bd 9931 c93d 370d eebc

arith.constant4 f4 [64]
-0.06336637 -0.08889596 0.025567535 0.0015308966 -0.059127916 0.053495493 -0.032881092 -0.050209332
-0.027736101 -0.107872896 -0.016681654 0.09140529 -0.086903796 -0.018956166 -0.062038198 -0.06340939
-0.0283052 -0.0997163 -0.045266554 -0.054540064 -0.033680577 -0.08893889 -0.032573868 -0.054041047
-0.07624857 -0.08387829 0.058979046 -0.05187531 -0.021867601 -0.041240454 -0.0377073 0.010394587
0.025111498 -0.008733207 -0.10884571 -0.08113741 -0.009288282 0.04781253 -0.046421643 -0.018876439
-0.04647427 -0.029745197 -0.03955427 -0.048326686 0.07987384 -0.013794003 -0.022081306 -0.043178808
0.027655384 -0.10239221 -0.114337906 -0.15360214 -0.027102446 -0.07070263 0.04585483 -0.04628766
-0.12571119 -0.037545033 0.07462828 -0.09846329 -0.15000162 -0.09425588 -0.022513987 0.09303939
00000000: 3ac6 81bd 160f b6bd 0273 d13c 5ea8 c83a
00000010: 1d30 72bd 171e 5b3d 53ae 06bd 4da8 4dbd
00000020: d236 e3bc 77ec dcbd f7a7 88bc b232 bb3d
00000030: 9efa b1bd f649 9bbc c41b 7ebd c8dc 81bd
00000040: 4fe0 e7bc 0f38 ccbd 6c69 39bd 6765 5fbd
00000050: a5f4 09bd 9825 b6bd 2d6c 05bd 255a 5dbd
00000060: 3628 9cbd 62c8 abbd 0394 713d 347b 54bd
00000070: af23 b3bc c0eb 28bd f872 1abd 0f4e 2a3c
00000080: a1b6 cd3c ba15 0fbc 80ea debd 5f2b a6bd
00000090: e12d 18bc 12d7 433d 9f24 3ebd c3a2 9abc
000000a0: ce5b 3ebd 33ac f3bc a903 22bd 34f2 45bd
000000b0: e594 a33d 3e00 62bc dbe3 b4bc 43dc 30bd
000000c0: 8b8d e23c 02b3 d1bd fe29 eabd e149 1dbe
000000d0: f305 debc 8acc 90bd 46d2 3b3d 2198 3dbd
000000e0: 6fba 00be d2c8 19bd b6d6 983d 1fa7 c9bd
000000f0: 069a 19be 3a09 c1bd 416f b8bc 708b be3d

arith.constant5 f4 [64]
-0.002028975 0.033248298 -0.025930483 -0.098698184 -0.018203884 -0.07892134 -0.08197376 -0.06723629
-0.06237051 0.05489179 -0.07137705 0.007509682 -0.030594379 -0.116442986 -0.08386034 -0.04721115
-0.008740597 -0.03873771 -0.08119468 -0.026249997 0.10141862 -0.103911 -0.038014624 -0.03951742
0.025728488 0.08540288 0.009723457 -0.019435707 -0.06765466 -0.0155563895 -0.13090259 0.15563202
-0.11200571 -0.07664063 -0.072989665 -0.036625095 -0.04708031 -0.05084848 0.017388618 0.031655744
-0.108053215 -0.021631109 -0.026816487 -0.007258641 0.023810672 -0.021946557 0.009296401 -0.06989627
-0.050168637 0.0052356506 0.007155878 -0.037174657 -0.1238468 0.038861737 -0.042862456 -0.1149875
-0.039495226 -0.033129625 -0.028580137 -0.06403121 -0.036164634 -0.02232051 -0.08696388 -0.03436103
00000000: 8df8 04bb 5e2f 083d 2a6c d4bc 4622 cabd
00000010: 5020 95bc 83a1 a1bd dce1 a7bd 2eb3 89bd
00000020: 3878 7fbd 37d6 603d 212e 92bd c713 f63b
00000030: 10a1 fabc a979 eebd f8be abbd 7b60 41bd
00000040: b934 0fbc 6fab 1ebd 6549 a6bd 3c0a d7bc
00000050: 91b4 cf3d 4acf d4bd 39b5 1bbd 05dd 21bd
00000060: 8dc4 d23c b5e7 ae3d 224f 1f3c a237 9fbc
00000070: 878e 8abd 3ae0 7ebc 540b 06be 005e 1f3e
00000080: 4063 e5bd c3f5 9cbd 9b7b 95bd 3204 16bd
00000090: 48d7 40bd 7f46 50bd 9372 8e3c 74a9 013d
000000a0: 014b ddbd b933 b1bc 40ae dbbc e5d9 edbb
000000b0: 990e c33c 44c9 b3bc ef4f 183c c725 8fbd
000000c0: a17d 4dbd d28f ab3b db7b ea3b 7444 18bd
000000d0: 64a3 fdbd 7c2d 1f3d 8b90 2fbd 917e ebbd
000000e0: bfc5 21bd eeb2 07bd e420 eabc cc22 83bd
000000f0: 5e21 14bd 81d9 b6bc 1e1a b2bd 27be 0cbd

arith.constant6 f4 [32]
-0.05859844 -0.015747054 0.033264127 -0.019651014 0.01583589 -0.02101766 0.06559888 -0.07989727
-0.056624178 0.10523852 -0.043401863 -0.022457538 -0.0005002724 -0.038230713 -0.03692667 0.08778446
-0.0171533 -0.013424585 -0.09178609 -0.03391021 -0.029727455 0.038034562 -0.058202736 0.03889937
-0.011066534 -0.029013852 -0.07114584 -0.030930161 0.02129161 -0.065273754 0.025283558 -0.08985375
00000000: eb04 70bd f7ff 80bc f73f 083d 2afb a0bc
00000010: 45ba 813c 3a2d acbc b558 863d 2ea1 a3bd
00000020: c1ee 67bd 4b87 d73d 27c6 31bd dff8 b7bc
00000030: b624 03ba cf97 1cbd 6c40 17bd 57c8 b33d
00000040: 1485 8cbc caf2 5bbc 58fa bbbd 6fe5 0abd
00000050: fe86 f3bc 21ca 1b3d fe65 6ebd f254 1f3d
00000060: 6850 35bc 75ae edbc e9b4 91bd 4061 fdbc
00000070: be6b ae3c 3fae 85bd 771f cf3c 3e05 b8bd

arith.constant7 f4 [64, 3, 3, 64]
0.10274349 0.0860397 -0.04582919 0.042403746 -0.2740518 0.06904581 -0.08767508 0.06999073
-0.043886535 0.049037818 0.049406305 -0.057609715 -0.06686948 0.109581165 0.041481525 0.10958227
-0.069937035 -0.14581396 0.038653634 0.03288425 -0.06886371 -0.02399015 0.0006309484 0.039251663
-0.02970172 0.07170374 -0.08866962 0.08180959 0.11926561 0.027394956 0.058375064 0.078505024
-0.0034879968 -0.031331554 -0.023454523 -0.17586559 -0.12892085 -0.129532 0.05403341 -0.06577068
0.11566815 0.0937715 -0.036935307 -0.15657572 -0.122684725 0.007514887 -0.01572253 0.036825605
-0.071965374 -0.02724789 -0.015956216 0.048772343 0.025017349 -0.18997437 -0.0019545457 -0.18414763
-0.060223367 -0.0040105083 0.074792214 -0.015363355 -0.026751896 0.07422765 0.0018395921 -0.011408595
-0.04361411 -0.052853554 -0.08304207 0.006322193 -0.07092453 -0.074082516 -0.023447113 0.12202092
-0.06028279 -0.014533903 0.1007157 -0.13591485 -0.014765804 0.1503397 0.12692992 0.01136893
-0.051679738 0.036613584 -0.023196215 0.00040853745 -0.18583812 0.0010049089 0.056177773 0.08605517
0.0385408 0.020973861 -0.058646027 0.027017843 0.045217477 -0.026915735 0.06408142 -0.0021615184
0.01893048 -0.003511122 -0.05304792 -0.090684175 -0.011891184 -0.2794581 -0.053573236 -0.07990216
-0.01543536 0.1532218 -0.008107053 -0.12964898 -0.16022304 -0.055800218 0.047991578 -0.055878192
-0.011461755 -0.008486697 -0.06525262 -0.12948824 0.0410611 -0.22517045 -0.10394733 -0.00470569
-0.029300302 -0.040249664 0.118019775 -0.0012594349 -0.07727861 0.106116466 0.092247374 -0.030263383
0.051857304 -0.041084964 -0.062539764 0.009853747 -0.2668067 -0.120372385 -0.09517048 0.066225775
0.0015615207 0.08092472 0.084996015 -0.12765202 0.022963349 -0.0026081726 0.022114592 0.10055619
-0.19211236 -0.100557216 -0.13314816 0.04316685 -0.1824818 -0.008991141 -0.083828084 0.0033370662
0.13792692 -0.15535183 -0.105834335 -0.07206061 -0.010675973 -0.011048884 0.012945718 0.1157379
-0.028766897 0.059636306 0.08945387 -0.057317335 0.03086042 -0.11203449 -0.03771857 0.04834866
-0.054517657 -0.017866354 0.027664823 -0.17481375 -0.09483026 0.008025672 0.072446235 -0.023546789
-0.0054635224 -0.17065859 -0.044079028 -0.07064095 0.0069605657 -0.15355076 0.008389147 -0.011244248
0.045171104 -0.052604664 -0.065466575 -0.08086077 -0.10776923 0.011974253 -0.05493434 -0.1339609
-0.08116056 0.006370969 -0.09899783 -0.09849682 -0.21332775 0.010581548 -0.022035096 0.08432708
0.0045499518 0.08455078 -0.027529793 -0.20590292 -0.03363776 0.14625846 0.052329626 0.027393302
0.005850281 -0.02949755 0.039071795 0.042464804 -0.041163217 -0.08170557 0.006816067 0.008043666
-0.078199185 -0.089933425 -0.07687794 -0.03391315 -0.09095038 0.07587884 -0.09604597 -0.06492072
-0.098202854 -0.034124766 -0.05509418 -0.18716729 0.00010595329 -0.21390866 -0.11274356 0.008079794
-0.03324316 0.012866866 0.029369 -0.17020015 -0.20311217 -0.07549839 0.11070994 0.06407579
-0.07340968 -0.09238478 -0.005875783 0.05312594 -0.027687807 -0.08692424 -0.16818348 -0.033862304
-0.033202183 -0.09139425 -0.13903762 -0.15579617 -0.1115877 -0.04820753 0.024613237 -0.1104865
00000000: 2e6b d23d 9535 b03d 64b7 3bbd 8daf 2d3d
00000010: 8450 8cbe e467 8d3d fe8e b3bd 4d57 8f3d
00000020: 5ec2 33bd e1db 483d 445e 4a3d 2af8 6bbd
00000030: def2 88bd 176c e03d 88e8 293d ab6c e03d
00000040: 263b 8fbd 4150 15be 4653 1e3d a3b1 063d
00000050: 6b08 8dbd fe86 c4bc 3b66 253a 5ac6 203d
00000060: 0651 f3bc 69d9 923d 6b98 b5bd c98b a73d
00000070: 8741 f43d 636b e03c b11a 6f3d 3ec7 a03d
00000080: e096 64bb 8455 00bd b323 c0bc 1c16 34be
00000090: d403 04be 09a4 04be 2352 5d3d c7b2 86bd
000000a0: 6ce3 ec3d 460b c03d 7a49 17bd 6355 20be
000000b0: 2142 fbbd 713f f63b 89cc 80bc 72d6 163d
000000c0: 9562 93bd f836 dfbc 9cb6 82bc 82c5 473d
000000d0: 2ff1 cc3c a488 42be d617 00bb 3291 3cbe
000000e0: c7ac 76bd 956a 83bb a92c 993d 95b6 7bbc
000000f0: cb26 dbbc ab04 983d 781e f13a 1eeb 3abc
00000100: b6a4 32bd f87c 58bd f611 aabd 662a cf3b
00000110: e140 91bd 93b8 97bd 2914 c0bc 1be6 f93d
00000120: 16eb 76bd 9c1f 6ebc 0844 ce3d 432d 0bbe
00000130: 45ec 71bc a6f2 193e ebf9 013e c044 3a3c
00000140: 22ae 53bd 20f8 153d fd05 bebc f830 d639
00000150: 594c 3ebe 26b7 833a aa1a 663d b13d b03d
00000160: f5dc 1d3d 60d1 ab3c d136 70bd 8654 dd3c
00000170: f635 393d 637e dcbc 1f3d 833d 43a8 0dbb
00000180: 1814 9b3c da1a 66bb c748 59bd a0b8 b9bd
00000190: 3ed3 42bc 2215 8fbe 9c6f 5bbd bea3 a3bd
000001a0: 98e4 7cbc 2de6 1c3e 72d3 04bc b4c2 04be
000001b0: 8211 24be c58e 64bd d192 443d 88e0 64bd
000001c0: 16ca 3bbc ca0b 0bbc 2aa3 85bd 9198 04be
000001d0: af2f 283d 1593 66be 56e2 d4bd 3032 9abb
000001e0: 3007 f0bc d5dc 24bd 5ab4 f13d 9f13 a5ba
000001f0: 3f44 9ebd 9753 d93d 31ec bc3d eaea f7bc
00000200: 5368 543d b548 28bd d914 80bd 9c71 213c
00000210: e39a 88be cc85 f6bd bee8 c2bd 61a1 873d
00000220: f1ab cc3a dcbb a53d 6412 ae3d 36b7 02be
00000230: a21d bc3c e0ed 2abb a929 b53c 67f0 cd3d
00000240: 1ab9 44be f1f0 cdbd fe57 08be b9cf 303d
00000250: 82dc 3abe 944f 13bc 0fae abbd aeb2 5a3b
00000260: b73c 0d3e 8d14 1fbe acbf d8bd 8394 93bd
00000270: 47ea 2ebc 6106 35bc 471a 543c fe07 ed3d
00000280: 8ea8 ebbc 3345 743d 9733 b73d 95c5 6abd
00000290: fece fc3c 5772 e5bd ca7e 1abd 3f09 463d
000002a0: e84d 5fbd 765c 92bc 57a1 e23c 6002 33be
000002b0: 5e36 c2bd 1c7e 033c b15e 943d 32e5 c0bc
000002c0: 5907 b3bb 20c1 2ebe 368c 34bd 34ac 90bd
000002d0: 7515 e43b 693c 1dbe a272 093c cb39 38bc
000002e0: 5605 393d fd77 57bd 5713 86bd 559a a5bd
000002f0: 1db6 dcbd a82f 443c d502 61bd 0c2d 09be
00000300: 8237 a6bd 90c3 d03b 60bf cabd b3b8 c9bd
00000310: 9772 5abe 3b5e 2d3c f282 b4bc adb3 ac3d
00000320: c317 953b f628 ad3d 2986 e1bc 37d8 52be
00000330: bfc7 09bd c7c4 153e 9757 563d eb67 e03c
00000340: b7b3 bf3b d9a4 f1bc bf09 203d 93ef 2d3d
00000350: c39a 28bd 4055 a7bd 5059 df3b 95c9 033c
00000360: e526 a0bd 042f b8bd 2e72 9dbd 84e8 0abd
00000370: 3144 babd 5e66 9b3d c0b3 c4bd 28f5 84bd
00000380: 941e c9bd 69c6 0bbd 6faa 61bd c8a8 3fbe
00000390: 3d33 de38 df0a 5bbe 18e6 e6bd 1d61 043c
000003a0: fb29 08bd 8ccf 523c 4297 f03c f348 2ebe
000003b0: a3fc 4fbe e69e 9abd e5bb e23d 2b3a 833d
000003c0: d057 96bd 3b34 bdbd a489 c0bb 969a 593d
000003d0: 8ad1 e2bc 5605 b2bd 4a38 2cbe 33b3 0abd
000003e0: 03ff 07bd e92c bbbd e15f 0ebe 0889 1fbe
000003f0: 1888 e4bd 4275 45bd b3a1 c93c bf46 e2bd

arith.constant8 f4 [64, 3, 3, 64]
-0.06701123 -0.18235743 0.076141156 -0.082234815 0.08912102 0.16675258 0.035698976 -0.03316422
0.006419743 -0.01445202 -0.06382349 0.08723037 -0.18414715 -0.022134205 0.09110339 0.060421944
0.020379169 0.048636228 -0.004495955 -0.006067602 -0.03478197 0.04769519 0.11533207 -0.05177562
-0.041479435 -0.003109415 -0.05878225 0.054101422 0.018528307 -0.050516084 0.04007675 -0.047798906
0.104655564 -0.044106904 -0.09204016 -0.09889033 -0.020957615 -0.08185715 -0.0601713 -0.053517267
-0.02870909 0.04487643 -0.0072861193 0.034398865 0.13898413 -0.04918891 0.013308741 0.105554335
-0.12358355 -0.13231778 0.04019948 0.10422973 0.04314574 0.07495946 -0.08012768 0.027061775
0.009197903 -0.035592627 0.11585638 0.08538058 0.039757974 0.0555941 0.005793902 0.030353967
0.021789208 -0.17497163 0.1300763 -0.030310372 0.14276433 0.18016511 0.014263108 -0.022625927
0.012095717 -0.06692554 0.02817998 0.020884113 -0.12939174 0.028573584 0.0029926961 0.013092361
-0.042638607 0.085077316 -0.01192807 0.006288526 0.07083169 0.082484014 0.01808165 -0.115154676
-0.07853453 -0.013537956 -0.08112958 0.13843589 -0.01928799 0.0046176333 -0.080178976 -0.01801761
0.004783795 -0.11009162 -0.06958392 -0.020924898 -0.030553047 -0.097206384 0.02962958 -0.07926515
0.009961119 -0.024455652 0.0041170823 0.06626383 0.02669215 0.041097566 -0.056918073 0.052651703
-0.10351753 0.026972791 0.004158368 0.09137897 -0.024903601 0.049726482 -0.02224296 0.050742336
0.050798275 0.018671678 0.10851148 0.024651907 0.072952285 0.046301667 -0.09231276 0.012145157
-0.065564826 -0.14154835 -0.06855878 0.021678507 0.058185566 0.082258284 0.090152636 0.079664074
-0.03732831 -0.0060586715 -0.026894288 0.014865971 -0.08468897 -0.013401632 -0.13251872 -0.14641832
-0.029747052 0.116597496 0.0026528826 -0.027260078 0.005524366 -0.024081979 -0.18439785 -0.10671394
-0.12823845 -0.01513473 -0.012605827 0.039016437 0.022915423 0.017507767 -0.049348336 0.056756325
0.036643513 -0.02632108 -0.0077740313 0.014079081 0.07048946 0.0055792327 -0.07526077 0.02805286
-0.019819416 -0.050859958 0.006790472 0.070299976 0.07300042 -0.06003757 -0.058688078 -0.11808006
-0.16449653 -0.10242768 -0.013514757 0.21779694 -0.006787623 0.02123018 -0.0053216005 0.050346304
0.043025143 -0.00206194 -0.026712557 0.013387075 -0.067416 -0.07216101 0.03530799 0.025756203
0.06463765 -0.13931115 0.1523031 -0.10241038 -0.003288458 0.09769666 0.00700351 -0.03664623
-0.007029643 0.06736342 0.08723104 0.005295164 -0.07343544 -0.05203968 -0.052374046 -0.014197922
-0.012720718 0.032488387 0.107501306 0.031028222 0.052100323 0.07128283 0.11661239 -0.0027416723
-0.031124579 -0.019987768 -0.07917221 0.023996456 0.04868649 -0.14063153 -0.067865215 0.047515135
0.09020387 -0.083474845 -0.13070044 -0.08361546 0.0642497 0.016820531 -0.044295516 -0.018945737
0.01442168 -0.085927516 -0.014450076 0.09101209 0.109358974 -0.11610968 -0.0016569406 0.05339073
-0.06413296 -0.08769991 0.02256361 0.061528828 -0.011416279 0.072260074 0.044835895 0.029995035
-0.07569758 0.029578088 0.04416018 0.03243908 -0.03318233 -0.0007285539 0.02524359 0.056619514
00000000: 2f3d 89bd e8bb 3abe e5ef 9b3d ba6a a8bd
00000010: 1585 b63d 30c1 2a3e 1739 123d 35d7 07bd
00000020: b55c d23b 2ac8 6cbc e4b5 82bd d6a5 b23d
00000030: 1291 3cbe cb52 b5bc 6a94 ba3d 007d 773d
00000040: 37f2 a63c c836 473d ce52 93bb bcd2 c6bb
00000050: 8a77 0ebd 085c 433d 3833 ec3d ac12 54bd
00000060: 57e6 29bd 54c7 4bbb a8c5 70bd 7499 5d3d
00000070: adc8 973c f4e9 4ebd 8527 243d c9c8 43bd
00000080: a855 d63d 71a9 34bd 8d7f bcbd 0387 cabd
00000090: 4eaf abbc b9a4 a7bd 2e76 76bd ec34 5bbd
000000a0: 532f ebbc 59d0 373d 66c0 eebb d3e5 0c3d
000000b0: db51 0e3e 4f7a 49bd e80c 5a3c df2c d83d
000000c0: 5f19 fdbd 507e 07be 36a8 243d 6676 d53d
000000d0: 96b9 303d 5884 993d fb19 a4bd a8b0 dd3c
000000e0: cdb2 163c 93c9 11bd 1c46 ed3d 03dc ae3d
000000f0: 42d9 223d a4b6 633d c6da bd3b e2a8 f83c
00000100: 487f b23c c32b 33be b932 053e 754d f8bc
00000110: d030 123e 347d 383e d0af 693c 025a b9bc
00000120: 1d2d 463c 4210 89bd b4d9 e63c 2915 ab3c
00000130: 457f 04be 2613 ea3c 1c21 443b 5881 563c
00000140: d2a5 2ebd 043d ae3d f46d 43bc fb0f ce3b
00000150: 3510 913d 61ed a83d f81f 943c 37d6 ebbd
00000160: b6d6 a0bd 4ece 5dbc 4427 a6bd 23c2 0d3e
00000170: d901 9ebc 844f 973b e034 a4bd ab99 93bc
00000180: 62c1 9c3b b777 e1bd 0482 8ebd b16a abbc
00000190: 624a fabc 2414 c7bd bcb9 f23c c455 a2bd
000001a0: f633 233c 3857 c8bc 97e8 863b 55b5 873d
000001b0: 7fa9 da3c ec55 283d ed22 69bd 50a9 573d
000001c0: 0001 d4bd 0bf6 dc3c eb42 883b e624 bb3d
000001d0: a302 ccbc ffad 4b3d de36 b6bc 32d7 4f3d
000001e0: da11 503d 59f5 983c 443b de3d ccf2 c93c
000001f0: 0268 953d d1a6 3d3d 790e bdbd 7bfc 463c
00000200: da46 86bd 0df2 10be 8c68 8cbd 2097 b13c
00000210: fd53 6e3d 0877 a83d f2a1 b83d eb26 a33d
00000220: 92e5 18bd d287 c6bb 6951 dcbc 6790 733c
00000230: 6971 adbd 8592 5bbc fdb2 07be afee 15be
00000240: 17b0 f3bc abca ee3d fcdb 2d3b 8750 dfbc
00000250: be05 b53b 9247 c5bc cad2 3cbe d78c dabd
00000260: f150 03be a9f7 77bc ac88 4ebc b3cf 1f3d
00000270: 20b9 bb3c 736c 8f3c 7b21 4abd 5279 683d
00000280: 8217 163d 4e9f d7bc 4dbd febb f2ab 663c
00000290: c75c 903d ffd1 b63b 5222 9abd 1dcf e53c
000002a0: 545c a2bc 8852 50bd 9c82 de3b 6ff9 8f3d
000002b0: 3f81 953d f4e9 75bd e962 70bd f5d3 f1bd
000002c0: c771 28be 9ac5 d1bd 006d 5dbc 2906 5f3e
000002d0: b56a debb eaea ad3c d260 aebb ed37 4e3d
000002e0: 223b 303d 9d21 07bb 4bd4 dabc 7655 5b3c
000002f0: 6611 8abd 27c9 93bd 1c9f 103d acfe d23c
00000300: bf60 843d 95a7 0ebe 58f5 1b3e 89bc d1bd
00000310: 2c83 57bb 3015 c83d b37d e53b 5b1a 16bd
00000320: eb58 e6bb d5f5 893d 30a6 b23d 0e83 ad3b
00000330: 5265 96bd 8f27 55bd 2b86 56bd 679e 68bc
00000340: 8f6a 50bc 8b12 053d a529 dc3d e62e fe3c
00000350: 2667 553d bbfc 913d 7ad2 ee3d a1ad 33bb
00000360: f9f8 febc 63bd a3bc 0a25 a2bd 3794 c43c
00000370: 7c6b 473d b601 10be ebfc 8abd 3b9f 423d
00000380: cebc b83d dcf4 aabd 56d6 05be 953e abbd
00000390: 5995 833d 36cb 893c 376f 35bd 1734 9bbc
000003a0: e948 6c3c c4fa afbd 03c0 6cbc 8c64 ba3d
000003b0: 99f7 df3d e9ca edbd b32d d9ba 3db0 5a3d
000003c0: 2458 83bd 039c b3bd 52d7 b83c a705 7c3d
000003d0: 580b 3bbc 17fd 933d d8a5 373d 26b8 f53c
000003e0: 5507 9bbd bf4d f23c 4ee1 343d d7de 043d
000003f0: 32ea 07bd 6dfc 3eba a5cb ce3c dde9 673d

arith.constant9 f4 [64, 3, 3, 64]
0.016586177 -0.051261462 0.061248906 0.0277361 0.045653887 0.005578198 0.06964009 0.016706476
0.112390645 -0.13298513 0.07814189 -0.029781565 0.023061091 -0.023344219 -0.08667213 -0.21364857
0.0055164597 0.09484199 -0.0024871377 0.07668568 -0.048290413 0.03152913 0.01115808 -0.11691149
0.025943339 0.00089619507 -0.190426 -0.016892001 0.046463005 0.09051629 -0.110472515 -0.034468103
0.12931469 -0.047089756 0.08720584 -0.048505932 -0.15455623 -0.09457785 0.07805571 0.030922193
-0.020778038 0.06359223 -0.021498153 -0.024228 -0.07286072 0.12314103 0.04100828 0.040488232
-0.05875582 -0.021449437 0.07484676 -0.11058703 -0.021235969 -0.06954883 0.012689023 0.033688847
0.027765665 -0.048085164 -0.24652365 0.080014534 0.04268642 -0.34754312 0.051428292 -0.18319067
0.031723693 0.08336017 -0.052536003 -0.028263656 -0.021123946 -0.05952508 0.02799931 -0.056346703
0.13718855 -0.12900577 0.00083514524 -0.14709604 -0.018852418 0.008759238 -0.11773443 -0.12799111
-0.09860259 0.03235812 -0.20993787 0.088122435 -0.014120952 0.050753187 0.017558351 0.054028515
0.025106493 0.015120974 -0.27786267 0.06896795 0.053168643 0.032691818 0.085033074 -0.06673844
-0.07484318 -0.19485413 -0.10163383 -0.060450345 0.103305064 -0.17014876 -0.020620467 -0.014043161
-0.042319153 -0.022613075 0.0629202 0.07727843 -0.087519936 0.14485587 -0.06560153 -0.045892995
-0.06987553 -0.0639383 0.092454836 -0.10560793 -0.060531616 0.38017243 -0.047102798 -0.082636625
0.09332787 -0.06588047 -0.41409433 0.0069484683 0.0057155634 -0.06763739 -0.06432319 -0.2939393
0.10276577 -0.09164922 -0.10080233 -0.021448063 0.06228502 -0.0014414912 -0.050780125 -0.019896414
0.040457234 0.010929058 0.11667446 -0.04443719 0.0354481 0.032792788 0.02526621 0.08600027
0.06524724 0.055404197 -0.2305854 0.059272904 0.0068907724 0.025438474 0.04079713 0.018718448
-0.007929427 0.084812656 -0.19059885 0.13958673 -0.08157588 -0.056596544 0.12419074 0.014491095
-0.20346564 -0.13102114 -0.162795 -0.02210579 0.14370218 -0.22834183 0.02353245 0.010710037
-0.023908574 -0.045882896 0.04633464 0.11930725 0.028824495 0.04871491 0.015052369 0.007061479
0.049321324 -0.0023176635 0.05803531 -0.06618148 -0.0065917457 0.47721443 0.03927706 0.102841765
0.010339243 0.00020374056 -0.35211763 0.00017724613 0.08324231 -0.018046819 0.04254153 -0.16703297
-0.053217106 0.017389718 -0.03196383 0.06384236 -0.024345376 0.05422022 0.022134624 -0.006567889
0.09183634 0.008820844 0.023432752 0.05258444 -0.0032961948 -0.0728027 0.0025335099 -0.0882522
0.07238172 -0.020410864 -0.12744245 0.0750145 -0.025676526 -0.016895408 0.008330501 -0.09028845
-0.07438006 -0.028038813 0.058536764 -0.0024162363 0.057882294 0.06161827 -0.02949581 -0.042887725
0.15171276 0.0011309235 0.038570125 -0.014146678 -0.042702835 -0.003427975 5.2825613e-05 -0.049025945
-0.032593094 0.073229484 0.018855054 -0.11710787 0.019103616 0.07638129 -0.054156225 0.016978737
0.036815185 -0.03152233 0.059162736 -0.14433925 -0.057159428 0.07885065 0.010759417 -0.04891028
0.026243173 -0.088386156 -0.0018752498 0.17813046 0.035104405 -0.2678348 0.05809473 -0.025359377
00000000: bcdf 873c 8af7 51bd 22e0 7a3d d136 e33c
00000010: 92ff 3a3d 51c9 b63b 779f 8e3d 05dc 883c
00000020: 112d e63d 412d 08be db08 a03d 78f8 f3bc
00000030: 9dea bc3c 603c bfbc 2881 b1bd b1c6 5abe
00000040: 6bc3 b43b 843c c23d 3fff 22bb 620d 9d3d
00000050: 2bcc 45bd b024 013d 61d0 363c 4b6f efbd
00000060: 2087 d43c a2ee 6a3a 09ff 42be 1861 8abc
00000070: fe4f 3e3d 9b60 b93d 6a3f e2bd 6d2e 0dbd
00000080: 126b 043e 30e1 40bd fa98 b23d 28ae 46bd
00000090: fd43 1ebe 08b2 c1bd acdb 9f3d 8a50 fd3c
000000a0: b436 aabc a53c 823d e51c b0bc cc79 c6bc
000000b0: 0038 95bd 5d31 fc3d 4cf8 273d fdd6 253d
000000c0: f1a9 70bd bbb6 afbc 4249 993d 747b e2bd
000000d0: 0ef7 adbc 9e6f 8ebd 9fe5 4f3c 51fd 093d
000000e0: d274 e33c f3f4 44bd b270 7cbe a9de a33d
000000f0: f5d7 2e3d 2cf1 b1be 79a6 523d 5696 3bbe
00000100: b4f0 013d bdb8 aa3d fe2f 57bd 2f89 e7bc
00000110: 200c adbc 92d0 73bd cf5e e53c cdcb 66bd
00000120: 287b 0c3e 171a 04be a6ed 5a3a 58a0 16be
00000130: 6370 9abc e882 0f3c c01e f1bd 1a10 03be
00000140: 28f0 c9bd f389 043d f4f9 56be 8979 b43d
00000150: 915b 67bc 93e2 4f3d 88d6 8f3c 014d 5d3d
00000160: 22ac cd3c f6bd 773c 0444 8ebe 123f 8d3d
00000170: 5dc7 593d dbe7 053d d225 ae3d 2aae 88bd
00000180: 6247 99bd d787 47be 6625 d0bd c89a 77bd
00000190: 9b91 d33d 7a3b 2ebe 41ec a8bc 4915 66bc
000001a0: d956 2dbd 0e3f b9bc 4edc 803d 2744 9e3d
000001b0: a73d b3bd 1955 143e 185a 86bd 4bfa 3bbd
000001c0: e71a 8fbd 15f2 82bd f658 bd3d f848 d8bd
000001d0: 00f0 77bd f6a5 c23e ddee 40bd 643d a9bd
000001e0: af22 bf3d 57ec 86bd 2c04 d4be faaf e33b
000001f0: 9f49 bb3b 7985 8abd e0bb 83bd 367f 96be
00000200: dc76 d23d 96b2 bbbd 7471 cebd d9b3 afbc
00000210: 941e 7f3d 6bf0 bcba d2fe 4fbd cefd a2bc
00000220: 7cb6 253d cb0f 333c 05f3 ee3d c503 36bd
00000230: 0732 113d bb51 063d 15fb ce3c e920 b03d
00000240: 58a0 853d 83ef 623d 941e 6cbe 25c8 723d
00000250: fdcb e13b 5964 d03c e41a 273d 6e57 993c
00000260: 6dea 01bc 42b2 ad3d 582c 43be d3ef 0e3e
00000270: 4111 a7bd c7d1 67bd b757 fe3d 0f6c 6d3c
00000280: 4c59 50be 682a 06be bcb3 26be 3417 b5bc
00000290: aa26 133e 71d2 69be 20c7 c03c 2779 2f3c
000002a0: eadb c3bc b4ef 3bbd 64c9 3d3d 5c57 f43d
000002b0: 5921 ec3c 4989 473d 369e 763c fb63 e73b
000002c0: 2805 4a3d f1e3 17bb 6fb6 6d3d 288a 87bd
000002d0: 92ff d7bb 7355 f43e fce0 203d b49e d23d
000002e0: ee65 293c 31a3 5539 c348 b4be 25db 3939
000002f0: f27a aa3d ecd6 93bc 0740 2e3d b10a 2bbe
00000300: 2efa 59bd e274 8e3c 81ec 02bd c9bf 823d
00000310: f46f c7bc 0516 5e3d ac53 b53c 7237 d7bb
00000320: b114 bc3d 4d85 103c 0bf6 bf3c c862 573d
00000330: f904 58bb 9519 95bd 3e09 263b 92bd b4bd
00000340: de3c 943d af34 a7bc 4680 02be 34a1 993d
00000350: 9457 d2bc 3d68 8abc a77c 083c 27e9 b8bd
00000360: 9354 98bd a7b1 e5bc 3fc4 6f3d b859 1ebb
00000370: fc15 6d3d 7063 7c3d 32a1 f1bc 0aab 2fbd
00000380: 975a 1b3e 7f3b 943a b5fb 1d3d 78c7 67bc
00000390: 2be9 2ebd e1a7 60bb 1291 5d38 6ecf 48bd
000003a0: 5680 05bd 57f9 953d ea75 9a3c 40d6 efbd
000003b0: 307f 9c3c cb6d 9c3d ebd2 5dbd fe16 8b3c
000003c0: 85cb 163d 8f1d 01bd a054 723d abcd 13be
000003d0: 0120 6abd 737c a13d 4448 303c 2556 48bd
000003e0: ecfb d63c cd03 b5bd f1ca f5ba d567 363e
000003f0: a3c9 0f3d a521 89be bdf4 6d3d 78be cfbc

arith.constant10 f4 [64, 3, 3, 64]
-0.17854097 0.064193256 0.028438466 0.012970936 -0.0076740617 -0.016653921 0.034010712 0.022732485
0.08278132 -0.015911175 0.05771138 -0.062147815 0.023190115 -0.14550026 -0.09891014 -0.062970154
-0.069935195 -0.02569874 0.06196759 -0.051052045 0.017995205 -0.068680614 0.0065724184 0.01593153
-0.11586706 -0.09279193 0.029666768 -0.034342416 -0.08514437 -0.042831715 -0.20986092 0.101492964
-0.06337137 0.050988927 0.05089079 -0.006315423 0.011999819 -0.0020996556 -0.01793498 0.057139657
0.09149528 0.06095907 0.035933737 -0.089820765 -0.0098782405 -0.24618024 -0.026239017 0.067822754
0.07251609 0.03475158 0.028671596 0.044040404 0.18760914 -0.077539645 0.17720224 -0.07728875
0.0033317984 0.011884134 -0.048084766 0.032407276 -0.04676461 -0.0404985 -0.032029297 -0.030260595
-0.10318552 0.11860382 -0.0068583195 0.03432836 0.018822124 -0.019782638 0.040938567 0.041459613
0.016946588 -0.016616767 0.09558813 -0.04754757 -0.002519875 -0.23470308 0.004053552 -0.11622274
-0.113376975 -0.019433755 -0.0012067587 0.033511817 -0.061999053 -0.06914029 -0.0018053703 -0.0684605
-0.07456266 -0.030087424 0.1294585 0.008783426 -0.11578218 -0.058848113 -0.24143401 0.07814888
-0.1992449 0.016842784 -0.0061109997 0.108788975 -0.08747392 -0.09555001 0.023017725 0.06407575
-0.0921715 0.10085104 0.021723816 -0.15979742 -0.044705007 -0.299563 -0.029059807 -0.081463106
0.051590335 -0.09023583 -0.09094118 -0.04107999 0.048937388 -0.13140918 0.059751492 -0.2629023
-0.05575448 0.035825912 -0.034655284 0.022825861 -0.046999205 0.033752132 -0.03635337 -0.022104852
-0.14524817 0.0061066947 -0.028793674 0.036060944 -0.060801502 -0.1703288 -0.0005833763 0.10287693
0.057148106 -0.0013322906 0.045389432 -0.12601078 -0.006016003 -0.13025838 -0.14465092 -0.11326019
-0.050929837 -0.09592785 0.09293824 0.023404153 -0.067236826 -0.10077345 0.08523277 0.0051720575
-0.10770787 -0.046721287 0.074169196 0.03859049 -0.081201255 0.05526184 -0.0956048 0.0035176189
-0.17116013 -0.016446505 -0.028501205 0.11781839 0.01665665 0.029253397 -0.022959242 0.052892316
0.06011002 -0.008783733 -0.03100115 -0.087904714 -0.21396232 -0.22680667 -0.020973686 -0.07167162
0.05319897 0.026104651 -0.111114874 -0.025003035 0.13091968 -0.07073656 0.069331214 -0.12565355
-0.023137843 0.0054066447 0.020132624 0.009990883 -0.006095499 -0.02575803 -0.0029695237 0.06627719
-0.15996622 0.10427446 0.044729203 0.00836322 0.005961049 -0.038086616 0.05265427 0.08513505
0.057890274 0.08358666 -0.0053561907 0.061181605 -0.07712559 -0.1838423 0.090179 -0.05587191
-0.019433701 0.031259775 0.020248732 0.06864158 0.046538766 -0.014113418 0.016869526 -0.00628031
-0.036586564 -0.017340083 0.08584544 -0.038833093 0.005968817 0.005240725 -0.21541525 0.09801495
-0.078964666 -0.022304293 0.08403619 0.022427348 0.015986696 -0.049584445 -0.0844642 -0.017894495
-0.0014825658 -0.017871354 -0.04310355 -0.045497384 -0.053919856 -0.28204072 0.09238865 0.0912452
0.05885912 0.023301855 -0.018002115 -0.048405714 0.023738127 -0.055922322 0.060713008 -0.096751034
0.068077855 0.047736667 -0.0649344 -0.020594096 -0.004464869 0.013739721 -0.07333563 -0.035810586
00000000: 72d3 36be c177 833d c9f7 e83c 0c84 543c
00000010: b276 fbbb ce6d 88bc d14e 0b3d 7a39 ba3c
00000020: 4189 a93d 2758 82bc c562 6c3d b58e 7ebd
00000030: 32f9 bd3c 05fe 14be 6691 cabd 7ff6 80bd
00000040: 2f3a 8fbd 2a86 d2bc bad1 7d3d f31b 51bd
00000050: ae6a 933c 6ca8 8cbd 715d d73b d782 823c
00000060: b64b edbd b209 bebd b907 f33c a2aa 0cbd
00000070: 2c60 aebd 4f70 2fbd c8e5 56be 8bdb cf3d
00000080: d9c8 81bd c4d9 503d dc72 503d 9cf1 cebb
00000090: e49a 443c 609a 09bb 61ec 92bc 460b 6a3d
000000a0: e161 bb3d 38b0 793d 412f 133d f3f3 b7bd
000000b0: 58d8 21bc ac16 7cbe 35f3 d6bc a8e6 8a3d
000000c0: 5183 943d ac57 0e3d b2e0 ea3c b663 343d
000000d0: 9c1c 403e 1bcd 9ebd 8174 353e 9049 9ebd
000000e0: 4d5a 5a3b acb5 423c 88f4 44bd 7ebd 043d
000000f0: 3f8c 3fbd c1e1 25bd 2731 03bd 11e5 f7bc
00000100: ee52 d3bd 8fe6 f23d c1bb e0bb e59b 0c3d
00000110: db30 9a3c 330f a2bc 33af 273d 8ed1 293d
00000120: 92d3 8a3c e31f 88bc b6c3 c33d 3ec1 42bd
00000130: 7d24 25bb 0156 70be a9d3 843b 3006 eebd
00000140: 3032 e8bd 8a33 9fbc 1a2c 9eba b043 093d
00000150: b8f2 7dbd 6d99 8dbd 2da2 ecba 0535 8cbd
00000160: 4fb4 98bd e779 f6bc c590 043e 5ce8 0f3c
00000170: 351f edbd b80a 71bd 7a3a 77be 850c a03d
00000180: db06 4cbe e1f9 893c c83e c8bb c1cc de3d
00000190: 8725 b3bd b9af c3bd ab8f bc3c 263a 833d
000001a0: 69c4 bcbd fd8a ce3d 25f6 b13c efa1 23be
000001b0: 991c 37bd 5260 99be d50e eebc 21d6 a6bd
000001c0: 6350 533d 90cd b8bd 5f3f babd 7e43 28bd
000001d0: 9272 483d 2190 06be fbbd 743d 219b 86be
000001e0: cf5e 64bd 31be 123d b3f2 0dbd 4dfd ba3c
000001f0: 3d82 40bd ad3f 0a3d 45e7 14bd 3c15 b5bc
00000200: f0bb 14be ab1a c83b b6e0 ebbc a4b4 133d
00000210: ff0a 79bd ac6a 2ebe b9ed 18ba 24b1 d23d
00000220: 2214 6a3d 41a0 aeba 45ea 393d f808 01be
00000230: e421 c5bb 7462 05be 5f1f 14be f5f4 e7bd
00000240: ce9b 50bd d275 c4bd 6756 be3d 11ba bf3c
00000250: 76b3 89bd 5062 cebd 858e ae3d 5d7a a93b
00000260: f295 dcbd d25e 3fbd 05e6 973d 1011 1e3d
00000270: d84c a6bd 3d5a 623d 73cc c3bd da87 663b
00000280: 9a44 2fbe d2ba 86bc 5c7b e9bc c54a f13d
00000290: 8773 883c d2a4 ef3c 0515 bcbc 9da5 583d
000002a0: ed35 763d a5e9 0fbc 20f6 fdbc 6307 b4bd
000002b0: f018 5bbe 0240 68be 02d1 abbc 92c8 92bd
000002c0: 2ae7 593d 6cd9 d53c 3290 e3bd 2ad3 ccbc
000002d0: cf0f 063e 54de 90bd 86fd 8d3d 53ab 00be
000002e0: 938b bdbc 392a b13b 2ced a43c cdb0 233c
000002f0: c0bc c7bb 8102 d3bc 579c 42bb 56bc 873d
00000300: 2fce 23be d98d d53d f835 373d e305 093c
00000310: e754 c33b b600 1cbd 01ac 573d 495b ae3d
00000320: 5a1e 6d3d 7c2f ab3d fc82 afbb 9099 7a3d
00000330: 05f4 9dbd 2841 3cbe c4af b83d f2d9 64bd
00000340: 6d33 9fbc 400a 003d abe0 a53c f593 8c3d
00000350: 6f9f 3e3d f73b 67bc f631 8a3c 0fcb cdbb
00000360: cbdb 15bd ca0c 8ebc bccf af3d 730f 1fbd
00000370: 1196 c33b 63ba ab3b d195 5cbe 10bc c83d
00000380: 3ab8 a1bd 7eb7 b6bc 2a1b ac3d 8fb9 b73c
00000390: 88f6 823c 0f19 4bbd 91fb acbd 7a97 92bc
000003a0: a752 c2ba f266 92bc 598d 30bd 775b 3abd
000003b0: 11db 5cbd a467 90be 4336 bd3d c3de ba3d
000003c0: 4316 713d 88e3 be3c 2c79 93bc 1245 46bd
000003d0: 7676 c23c ce0e 65bd 34ae 783d 6825 c6bd
000003e0: 676c 8b3d 8687 433d 54fc 84bd f3b4 a8bc
000003f0: 094e 92bb 911c 613c fe30 96bd 1fae 12bd

arith.constant11 f4 [64, 3, 3, 32]
-0.062065236 -0.085688554 0.15037589 0.0662409 0.009621514 -0.016288845 -0.038440097 -0.08760291
-0.058159757 0.057424016 -0.055205427 -0.053967655 0.03206815 -0.081723556 -0.0028820701 0.11455511
0.0033183442 -0.08560981 0.05628169 -0.06793747 0.0031892497 -0.004072599 0.05169518 -0.025179397
-0.07616135 -0.0026669395 -0.08323627 0.030958513 0.12575348 -0.082419775 -0.014897102 -0.08297757
0.022249078 -0.069999576 0.14020732 0.05058989 -0.05036061 0.074601956 0.010112278 -0.09626784
-0.06409332 0.04689072 0.019513223 0.03297223 -0.04372017 0.08792485 0.06660955 0.027775783
0.013266989 -0.06128077 -0.07381436 -0.061666965 -0.06306663 -0.15257032 0.035490915 -0.05533485
-0.03763478 -0.08314308 -0.016816534 0.041452274 0.02308631 -0.12741305 0.07934142 0.0029433558
-0.054475285 0.031984363 -0.07328863 -0.046557337 -0.033706866 -0.029314546 0.065186486 -0.05461819
-0.08499858 0.14025977 -0.010542705 -0.0118760755 -0.086336665 0.039717186 0.05710352 0.12417703
-0.046248507 0.04124032 -0.0012660846 0.12900282 -0.06434736 -0.14402702 -0.07286236 -0.025350083
-0.051801506 0.017858563 -0.013953805 0.04413208 -0.023861637 0.0034902086 -0.07498046 0.052346937
0.012292874 -0.08533269 0.092042275 0.035151403 -0.07271193 -0.09677842 0.12373891 -0.0067376806
-0.06084728 0.17522538 0.018234411 0.030422568 -0.028525257 -0.052900225 -0.008977115 0.040467605
0.059722602 -0.061981857 -0.039805695 0.011323581 -0.04483302 0.07116793 -0.033131633 -0.021361794
0.001056465 -0.004281555 -0.0738012 -0.08826743 0.02046648 0.04768623 -0.001080843 -0.011149901
-0.11031893 0.060661685 0.014702251 0.025092224 -0.099442974 0.027956547 0.02277493 -0.091354825
-0.10312533 0.08507416 -0.0890702 0.013491828 -0.06502799 0.011376874 -0.064687215 -0.06860851
0.04544581 -0.016299214 0.063905574 0.124981925 -0.05568834 -0.016461309 0.080783345 -0.14142814
-0.091839716 0.05149674 -0.07601102 -0.11456048 0.077336185 -0.23324753 0.08378256 -0.087282576
0.03879153 0.05370547 0.072270244 0.015177651 -0.08463965 -0.08060312 0.07485204 -0.020754697
-0.081988275 0.021779025 0.056131385 -0.03481106 0.062314145 0.059243765 0.021176947 -0.077167675
0.06075482 0.06185507 0.064910844 0.092969105 -0.015322379 0.049375504 0.10572014 -0.0154699925
0.0057040406 0.023607783 -0.048382267 0.11855983 -0.015020804 0.016494583 -0.063782156 0.08392993
-0.09139938 -0.05479407 -0.119093 -0.0266131 -0.05031714 0.0027376877 -0.054754518 0.01651313
-0.06047899 0.15332136 -0.054495852 0.056294948 0.06955682 0.022760123 -0.012209986 0.07883309
-0.07072569 -0.013320282 0.04601345 0.044797797 0.051287867 -0.11097263 -0.2737818 -0.03784483
-0.009264074 -0.05547857 -0.045402832 0.11339546 0.11592925 0.09844341 -0.01436336 -0.01805781
-0.062084842 0.008331144 0.14435907 0.07087778 -0.031005366 0.024042608 -0.09280821 -0.10718506
-0.0027892413 0.12837078 -0.07779569 -0.07651427 -0.046656422 -0.10743642 -0.0591484 -0.00887205
0.059224095 0.0142526375 -0.063909285 -0.025250493 -0.032611094 -0.09830789 -0.016990587 -0.018574698
0.012460559 0.059024855 -0.010822481 -0.058611587 -0.02041162 0.02311451 0.0009331401 -0.038587738
00000000: 1e38 7ebd 7b7d afbd 23fc 193e 4fa9 873d
00000010: 8ea3 1d3c 2f70 85bc 5d73 1dbd 2869 b3bd
00000020: ed38 6ebd 7235 6b3d 161f 62bd 300d 5dbd
00000030: e459 033d ae5e a7bd 1de1 3cbb df9b ea3d
00000040: 9478 593b 3254 afbd a187 663d cd22 8bbd
00000050: bb02 513b 7073 85bb 53be 533d 0645 cebc
00000060: 7bfa 9bbd d2c7 2ebb c777 aabd b59c fd3c
00000070: 85c5 003e b3cb a8bd f912 74bc 25f0 a9bd
00000080: b343 b63c f05b 8fbd 8292 0f3e 5837 4f3d
00000090: ed46 4ebd e9c8 983d f8ad 253c 1328 c5bd
000000a0: 5c43 83bd 7c10 403d 32da 9f3c e40d 073d
000000b0: ec13 33bd f211 b43d 966a 883d 0a8a e33c
000000c0: c95d 593c 8b01 7bbd fc2b 97bd 8096 7cbd
000000d0: 1429 81bd 653b 1cbe ec5e 113d cca6 62bd
000000e0: ed26 1abd eb46 aabd d4c2 89bc dcc9 293d
000000f0: 801f bd3c 9178 02be c17d a23d 51e5 403b
00000100: 7a21 5fbd 0902 033d 5918 96bd e8b2 3ebd
00000110: 3610 0abd 0f25 f0bc 7e80 853d 53b7 5fbd
00000120: bc13 aebd 42a0 0f3e 4fbb 2cbc df93 42bc
00000130: 47d1 b0bd 7dae 223d 61e5 693d 8750 fe3d
00000140: 136f 3dbd 9ceb 283d c0f2 a5ba 5119 043e
00000150: 8cc8 83bd d27b 13be dc38 95bd faaa cfbc
00000160: d12d 54bd 1f4c 923c 809e 64bc d7c3 343d
00000170: 7b79 c3bc fcbb 643b 5b8f 99bd be69 563d
00000180: 0d68 493c e8c2 aebd a980 bc3d ebfa 0f3d
00000190: fee9 94bd c433 c6bd d36a fd3d c3c7 dcbb
000001a0: ff3a 79bd 486e 333e 5560 953c c038 f93c
000001b0: cdad e9bc e8ad 58bd c014 13bc 5cc1 253d
000001c0: b09f 743d b0e0 7dbd 4c0b 23bd 8b86 393c
000001d0: d4a2 37bd 7ec0 913d 09b5 07bd eefe aebc
000001e0: 1579 8a3a 494c 8cbb 1525 97bd 8ec5 b4bd
000001f0: 52a9 a73c a352 433d 13ab 8dba 13ae 36bc
00000200: e4ee e1bd 6378 783d b6e1 703c 358e cd3c
00000210: c2a8 cbbd 2105 e53c 7d92 ba3c 3d18 bbbd
00000220: 5f33 d3bd 5c3b ae3d 706a b6bd d40c 5d3c
00000230: 652d 85bd 1166 3a3c bb7a 84bd 9e82 8cbd
00000240: 6325 3a3d ee85 85bc ede0 823d 86f6 ff3d
00000250: 7519 64bd ded9 86bc bd71 a53d 8ad2 10be
00000260: 7616 bcbd 3fee 523d aaab 9bbd af9e eabd
00000270: 6f62 9e3d 71d8 6ebe 3196 ab3d 35c1 b2bd
00000280: dee3 1e3d 44fa 5b3d 6c02 943d afab 783c
00000290: 8e57 adbd 4013 a5bd 074c 993d c105 aabc
000002a0: 78e9 a7bd ed69 b23c 06ea 653d 0b96 0ebd
000002b0: 1e3d 7f3d 97a9 723d 477b ad3c 160a 9ebd
000002c0: 0cda 783d be5b 7d3d faef 843d 9666 be3d
000002d0: b70a 7bbc f83d 4a3d cd83 d83d da75 7dbc
000002e0: f6e8 ba3b 1c65 c13c 7c2c 46bd 7fcf f23d
000002f0: d119 76bc a61f 873c 38a0 82bd 75e3 ab3d
00000300: 992f bbbd bf6f 60bd 08e7 f3bd b703 dabc
00000310: 5819 4ebd c76a 333b 4646 60bd 8b46 873c
00000320: d1b8 77bd 4600 1d3e 0b37 5fbd 8895 663d
00000330: ce73 8e3d 7073 ba3c 650c 48bc 3e73 a13d
00000340: a1d8 90bd 503d 5abc 9978 3c3d e57d 373d
00000350: 3a13 523d 9e45 e3bd 212d 8cbe 2e03 1bbd
00000360: 58c8 17bc 7f3d 63bd 52f8 39bd e13b e83d
00000370: 516c ed3d b39c c93d 4c54 6bbc f9ed 93bc
00000380: ad4c 7ebd 5a7f 083c ddd2 133e 5f28 913d
00000390: f7fe fdbc 01f5 c43c 3b12 bebd d783 dbbd
000003a0: b4cb 36bb a173 033e 5953 9fbd 83b3 9cbd
000003b0: ce1a 3fbd a007 dcbd 9845 72bd 135c 11bc
000003c0: f794 723d e583 693c dfe2 82bd 1fda cebc
000003d0: 3693 05bd a655 c9bd d82f 8bbc f729 98bc
000003e0: 5f27 4c3c 0cc4 713d c650 31bc b412 70bd
000003f0: 4536 a7bc a45a bd3c f99d 743a 2d0e 1ebd
